Assets/MoodMeBarracuda/Networks/emotions_3.onnx (onnx, 792904 bytes, 46 tensors)

conv2d_36/kernel:0 f4 [3, 256, 3, 3]
-0.000850409 -4.3691707e-05 0.0007622595 0.0011279014 0.0041508866 0.0031622548 0.0021381902 0.0044817184
0.0024281922 0.0002668524 0.0011196388 0.001039862 0.0017957937 0.00048775916 -0.0010304089 0.0014268709
-0.0004367964 -0.001438183 -0.0047508813 -0.007644995 -0.0025113353 0.0076045063 0.00722603 -0.00020248468
0.012281656 0.015187078 0.0026027246 -0.0043424116 -0.004221164 0.00086890947 0.0024181032 0.0035378996
0.001600454 0.006986496 0.0075501055 0.0010438932 -0.0015246789 -0.0028032744 -0.0017800456 0.0035965892
0.0053333626 0.0011446481 0.005100482 0.008071996 0.0023907968 0.0007984709 0.0026506684 0.0019440857
0.006213723 0.0065978942 0.0010488128 0.0050836136 0.0043823305 -0.00036419043 0.0039996007 0.0063284105
0.0026320985 0.009674191 0.005630983 -0.002144192 0.005879126 0.00032578397 -0.0043825763 0.0071881074
0.015153742 0.0069385218 0.009335347 0.018577177 0.009826248 0.0025080412 0.0035836892 0.0029293292
6.303026e-05 0.0022021506 0.001860046 0.0038841462 0.007600488 0.0034139985 0.003896253 0.0052628596
0.0014647989 -0.0025544749 -0.0019442317 0.0006981861 -0.009123028 -0.0077442206 0.0021386014 -0.005536676
-0.0044632843 0.0019718402 -3.8694485e-05 0.0021148017 0.0025577906 -0.0075861337 -0.0024205327 0.005687429
-0.007375833 -0.004690246 0.002150055 -0.0015140622 -0.0017593709 -0.00018616601 -0.0020989631 -0.0012207807
0.0006336849 -0.00050880364 0.00037082625 0.0006357762 -0.004836891 -0.005708005 -0.0004770691 -0.003055814
-6.679738e-05 0.0027554824 0.0017649563 0.0054344144 0.0034202607 -0.0011658629 0.0009013978 0.0017881762
0.0014328529 0.0047511165 0.0030401805 0.0026757766 0.0037976343 0.0011833863 0.003062105 0.0051715905
0.002412345 -0.0014374588 0.0034579793 0.0058277785 -0.0035835705 -0.0011070766 0.0032843861 -0.0013186702
4.1619303e-05 0.0013610622 -0.00081008096 -0.00081455876 -0.00025327184 0.00026281853 -0.0011875218 -0.0015212414
0.0044036824 0.0053243395 0.0011186312 0.0023258284 0.0021743155 0.0010262205 -0.0022836528 -0.0027308972
-0.00028147682 -0.0037138169 -0.0038618613 6.4221145e-05 0.0006526701 0.00018401691 -0.00015036455 0.004379359
0.0040717497 4.151147e-05 -0.010499298 -0.015064739 -0.0050360165 -0.0064607207 -0.008447579 -0.002217359
0.004351685 0.0067760935 0.0022235892 0.020538608 0.025855282 0.005158481 0.0035100412 0.005530846
0.0010122424 -0.016348485 -0.020806273 -0.004356757 0.0013752389 0.0010025922 -0.000111261965 -0.000110929206
-0.00015074278 -0.00035995257 -0.0014416637 -0.0013696976 -0.0006344217 -0.0020180664 0.0017350586 0.0016646052
0.0034088688 0.008065007 0.005440199 0.0050549638 0.00833963 0.0048092203 -0.0005958067 -0.0022309534
-0.0016042558 0.0042017647 0.0019119304 -0.002755231 0.003670441 0.003042855 -0.00082879845 0.0070791077
0.00870082 0.0006656521 0.0033380208 0.0042481497 0.0005133581 -0.0034179462 -0.0040718783 -0.00083830446
0.0013969673 0.0006046637 -0.0007535886 0.002659056 0.0028267708 -0.00020062302 0.0011697804 0.0019013858
0.00021268078 0.0006983119 -0.002438708 -0.0045112213 0.0070917183 0.003911854 -0.0037767885 0.0058361194
0.005896992 0.00028917575 -0.0010311893 0.0002907018 0.0009046895 -0.0022651707 -0.002145014 -0.0002930428
-0.001431477 -0.0028394512 -0.0014672446 -0.004788719 -0.005169752 -0.00043999113 -0.007069659 -0.009323114
-0.002539308 -0.0023298638 -0.004368532 -0.0023257097 0.009578947 0.012773437 0.0032543389 0.012120387
00000000: fbed 5eba 9d41 37b8 5ed2 473a 17d6 933a
00000010: 2904 883b d53d 4f3b e120 0c3b 61db 923b
00000020: 4e22 1f3b 53e8 8b39 d8c0 923a fb4b 883a
00000030: d660 eb3a edb9 ff39 c90e 87ba d805 bb3a
00000040: d201 e5b9 6a81 bcba 48ad 9bbb de82 fabb
00000050: 3795 24bb 392f f93b 55c8 ec3b 1152 54b9
00000060: 0039 493c 39d3 783c 7992 2a3b ca4a 8ebb
00000070: b151 8abb 87c7 633a 0a79 1e3b 1bdc 673b
00000080: 53c6 d13a faee e43b e066 f73b 3ed3 883a
00000090: bcd7 c7ba 24b7 37bb 6b50 e9ba c1b4 6b3b
000000a0: 7dc3 ae3b 0408 963a f221 a73b 6840 043c
000000b0: eaae 1c3b 7a50 513a d6b6 2d3b b1d0 fe3a
000000c0: 7d9c cb3b 2633 d83b 5178 893a 7194 a63b
000000d0: a799 8f3b d0f0 beb9 150f 833b 8e5e cf3b
000000e0: 497f 2c3b 7f80 1e3c 1c84 b83b 9385 0cbb
000000f0: afa5 c03b fccd aa39 b79b 8fbb 378a eb3b
00000100: 6747 783c 8a5c e33b 49f3 183c 2a2f 983c
00000110: 45fe 203c f35d 243b 54dc 6a3b fdf9 3f3b
00000120: 1d2f 8438 f551 103b c9cc f33a 298d 7e3b
00000130: 840d f93b 64bd 5f3b 4758 7f3b 1174 ac3b
00000140: 7ffe bf3a fa68 27bb 97d5 feba 7a06 373a
00000150: c178 15bc 3bc3 fdbb c727 0c3b 016d b5bb
00000160: be40 92bb fd39 013b e34b 22b8 7c98 0a3b
00000170: 9ba0 273b 1a95 f8bb cda1 1ebb 9d5d ba3b
00000180: f9b0 f1bb a3b0 99bb f0e7 0c3b 7f73 c6ba
00000190: b19a e6ba 8f35 43b9 c28e 09bb 9a02 a0ba
000001a0: e01d 263a 3c61 05ba 756b c239 38aa 263a
000001b0: c87e 9ebb 370a bbbb 211f fab9 0d44 48bb
000001c0: 9215 8cb8 5395 343b 1b56 e73a 2c13 b23b
000001d0: 7426 603b decf 98ba c84b 6c3a 3d61 ea3a
000001e0: 91ce bb3a 41af 9b3b c43d 473b 155c 2f3b
000001f0: bbe1 783b db1b 9b3a 99ad 483b 7276 a93b
00000200: 6f18 1e3b 1d69 bcba 449f 623b f3f6 be3b
00000210: 56da 6abb 541b 91ba db3e 573b 3bd7 acba
00000220: 6390 2e38 ab65 b23a 9d5b 54ba 1d88 55ba
00000230: 92c9 84b9 e8ca 8939 9fa6 9bba 6464 c7ba
00000240: c44c 903b cc77 ae3b 099f 923a ed6c 183b
00000250: f67e 0e3b 3f82 863a 56a9 15bb daf8 32bb
00000260: 2e93 93b9 8263 73bb 4817 7dbb 77ae 8638
00000270: f317 2b3a aaf4 4039 2dab 1db9 ba80 8f3b
00000280: 506c 853b 9a1c 2e38 3f05 2cbc 18d2 76bc
00000290: 2b05 a5bb 74b4 d3bb b767 0abc 1c51 11bb
000002a0: 9498 8e3b fe09 de3b a3b9 113b 9540 a83c
000002b0: 75ce d33c 7a08 a93b b808 663b 193c b53b
000002c0: 38ad 843a 42ed 85bc eb71 aabc 20c3 8ebb
000002d0: 5c41 b43a 6969 833a 5055 e9b8 aaa2 e8b8
000002e0: b510 1eb9 04b8 bcb9 35f6 bcba 6d87 b3ba
000002f0: 524f 26ba 8941 04bb e86a e33a e22e da3a
00000300: 5467 5f3b 1723 043c b243 b23b 1ca4 a53b
00000310: f2a2 083c aa96 9d3b e92f 1cba 3035 12bb
00000320: e445 d2ba f5ae 893b bd99 fa3a 1b91 34bb
00000330: c88b 703b a36a 473b b943 59ba dcf7 e73b
00000340: e28d 0e3c 287f 2e3a b2c2 5a3b 1034 8b3b
00000350: e192 063a 9fff 5fbb 646d 85bb a9c1 5bba
00000360: 721a b73a 4b82 1e3a 7a8c 45ba 8f43 2e3b
00000370: 5841 393b 555e 52b9 5153 993a ec37 f93a
00000380: 1003 5f39 eb0e 373a bbd2 1fbb ded2 93bb
00000390: a561 e83b 022f 803b ff83 77bb eb3c bf3b
000003a0: 8e3b c13b 839c 9739 f928 87ba 5669 9839
000003b0: af28 6d3a 4273 14bb 5d93 0cbb 8aa3 99b9
000003c0: 66a0 bbba 1616 3abb 8f50 c0ba b0ea 9cbb
000003d0: 0667 a9bb 9cae e6b9 99a8 e7bb f9bf 18bc
000003e0: 856a 26bb a1b0 18bb e725 8fbb ef6a 18bb
000003f0: 04f1 1c3c ae47 513c bf46 553b 9694 463c

conv2d_36/bias:0 f4 [3]
0.22259527 -0.022939144 0.027796626
00000000: 04f0 633e dfea bbbc c0b5 e33c

separable_conv2d_44/depthwise_kernel:0 f4 [256, 1, 3, 3]
0.037465207 -0.040964562 0.04100139 -0.025082015 0.13302994 -0.07047376 -0.09489097 0.095629625
0.020879019 0.11769589 -0.09876053 0.045097306 0.14503215 -0.10902604 0.018125085 0.008992512
0.042473327 -0.054463074 0.06499995 -0.03428696 -0.010793886 0.0310813 -0.010054068 -0.060696427
-0.02948443 0.030694542 -0.013976935 -0.0016234219 0.09769419 0.062268898 0.07636808 0.06078119
-0.036911134 0.066053934 0.050636664 -0.02349356 0.024706962 -0.16858278 0.048515134 -0.06868809
0.093257464 -0.043714147 -0.00828821 -0.0954792 -0.0002396416 0.12233991 0.08052903 -0.09230805
-0.05240467 0.045488708 -0.13224117 -0.04914451 -0.00972674 -0.08227386 -0.06163722 -0.010816937
-0.10103753 -0.048555046 -0.071776055 -0.10483222 -0.06429874 -0.12880148 -0.09188237 -0.09343003
0.033047676 -0.08429816 -0.07538866 -0.06919991 -0.067468695 0.13114941 0.09643311 -0.016755639
0.05360788 0.072462186 0.104088515 -0.037393022 0.022516679 0.01526634 -0.05177644 0.002603907
-0.13231784 -0.04646765 0.03367876 0.014324132 -0.21388187 0.023994975 -0.11437844 -0.1078224
-0.07206779 -0.14714237 -0.08703839 -0.16531238 -0.10076689 0.07260331 0.061566584 0.04778637
-0.013795034 -0.103105694 -0.115139075 -0.015192259 0.059374638 -0.006765256 -0.036990345 -0.061121628
-0.11409051 0.21796252 0.07352595 0.05046968 0.048967138 0.080695994 -0.008577528 -0.07153988
-0.033310425 -0.033161793 0.07806128 0.054158386 -0.067502424 -0.062964186 -0.13173501 -0.10713669
-0.07653874 -0.09384189 -0.09149009 -0.03597184 -0.114191554 -0.012716913 -0.07826539 0.023391044
-0.06180771 0.059241157 0.115384854 -0.036925826 -0.026819943 0.038804375 -0.10602228 0.05310206
0.015466015 0.028293835 0.017092975 -0.023899695 -0.019253956 -0.006430262 0.016489793 0.17437035
0.016512174 -0.05065999 -0.087604664 0.09003695 0.10180831 0.026380973 -0.033397548 0.021263216
0.01582601 0.00465148 -0.03044281 -0.07670531 -0.010673208 0.054516613 -0.09200571 0.0032279955
-0.07874 0.04171567 -0.0891072 0.048122145 -0.14182359 -0.030321553 0.06044729 0.113558024
-0.09254264 0.025701238 -0.087730914 0.015469368 0.113302656 -0.04384309 -0.13638797 -0.0610256
0.13004376 0.07590004 -0.028157357 -0.0710829 -0.015546309 0.06001017 0.150074 -0.05225277
0.0222496 -0.080677785 0.006288505 -0.0063591152 0.07456765 0.023607975 0.0819358 0.04614033
0.16962022 0.07131268 0.078191474 -0.066655636 -0.09511593 -0.11410137 -0.07806997 0.03325316
0.06095145 -0.09072502 -0.057043847 -0.14964561 0.0064543686 -0.071000576 -0.009720566 -0.036276862
-0.09224902 -0.12502158 -0.13022168 0.031398647 0.09031005 0.013124193 -0.028278708 0.035405222
-0.002869048 -0.024911229 -0.23050347 0.13258772 0.029760472 0.10482078 -0.061553765 -0.04505941
0.069888435 -0.006721292 0.07990958 0.085823715 0.09828894 -0.046349946 -0.066972196 0.02641391
0.0587586 -0.19163387 0.01737485 0.024350753 0.058742773 -0.10799019 0.039788168 0.010588441
0.015732095 0.13816608 -0.049557477 0.059864372 -0.0751004 -0.06661308 -0.081061944 -0.16076544
-0.080719516 0.10747561 0.23996487 0.14861016 0.010844583 0.049972665 -0.051671673 0.07465775
00000000: 1e75 193d 75ca 27bd 13f1 273d cc78 cdbc
00000010: 0039 083e 8c54 90bd 3256 c2bd 77d9 c33d
00000020: 7a0a ab3c 8b0a f13d f642 cabd f4b7 383d
00000030: 4f83 143e 0b49 dfbd 0f7b 943c 5455 133c
00000040: 83f8 2d3d ac14 5fbd b21e 853d 7c70 0cbd
00000050: d7d8 30bc 369e fe3c d1b9 24bc d19c 78bd
00000060: 5589 f1bc 1f73 fb3c 84ff 64bc 00c9 d4ba
00000070: e413 c83d ac0d 7f3d de66 9c3d b2f5 783d
00000080: 2130 17bd 4947 873d 6468 4f3d 9175 c0bc
00000090: 4166 ca3c f7a0 2cbe ceb7 463d 57ac 8cbd
000000a0: c5fd be3d 9b0d 33bd 46cb 07bc 998a c3bd
000000b0: 4d48 7bb9 598d fa3d 67ec a43d 010c bdbd
000000c0: 47a6 56bd 5e52 3a3d 3b6a 07be c14b 49bd
000000d0: e85c 1fbc 337f a8bd 4f77 7cbd 8639 31bc
000000e0: c4ec cebd a8e1 46bd 53ff 92bd 46b2 d6bd
000000f0: 0faf 83bd 89e4 03be d32c bcbd 3e58 bfbd
00000100: 005d 073d 84a4 acbd 5f65 9abd afb8 8dbd
00000110: 072d 8abd 084c 063e b97e c53d 1f43 89bc
00000120: f093 5b3d 0e67 943d 5c2c d53d 6d29 19bd
00000130: e674 b83c ac1f 7a3c 8813 54bd 4fa6 2a3b
00000140: 547e 07be dd54 3ebd bdf2 093d c4af 6a3c
00000150: d903 5bbe 1c91 c43c 3e3f eabd fed1 dcbd
00000160: 4798 93bd 7dac 16be 2f41 b2bd a647 29be
00000170: df5e cebd 0bb1 943d 3e2d 7c3d a4bb 433d
00000180: 9104 62bc 1429 d3bd 09ce ebbd f4e8 78bc
00000190: d232 733d 15af ddbb 3083 17bd ac5a 7abd
000001a0: 49a8 e9bd 9131 5f3e c694 963d 4cb9 4e3d
000001b0: c491 483d f143 a53d c388 0cbc 8083 92bd
000001c0: 8370 08bd a9d4 07bd 98de 9f3d 2fd5 5d3d
000001d0: b63e 8abd 5ef3 80bd 8be5 06be 7b6a dbbd
000001e0: 58c0 9cbd 2d30 c0bd 285f bbbd 3557 13bd
000001f0: 43dd e9bd 995a 50bc 9b49 a0bd 939e bf3c
00000200: 152a 7dbd dba6 723d e54e ec3d 893f 17bd
00000210: 7fb5 dbbc 56f1 1e3d 3622 d9bd 8c81 593d
00000220: 2b65 7d3c 79c8 e73c 9106 8c3c 4bc9 c3bc
00000230: 79ba 9dbc f2b4 d2bb 9a15 873c 248e 323e
00000240: 8a44 873c da80 4fbd 136a b3bd 4b65 b83d
00000250: e080 d03d e91c d83c decb 08bd 3230 ae3c
00000260: 8ca5 813c 716b 983b 3363 f9bc ac17 9dbd
00000270: aede 2ebc d04c 5f3d 7d6d bcbd c78c 533b
00000280: 7042 a1bd 0dde 2a3d d67d b6bd ba1b 453d
00000290: 343a 11be e864 f8bc 9497 773d 1c91 e83d
000002a0: ff86 bdbd 678b d23c 44ac b3bd 3b73 7d3c
000002b0: 390b e83d d094 33bd 4aa9 0bbe fbf5 79bd
000002c0: 312a 053e 7b71 9b3d 42aa e6bc e993 91bd
000002d0: f2b5 7ebc 39cd 753d 00ad 193e 0007 56bd
000002e0: cb44 b63c 653a a5bd ce0f ce3b 2060 d0bb
000002f0: edb6 983d 8365 c13c f5cd a73d a5fd 3c3d
00000300: ecb0 2d3e 620c 923d da22 a03d c082 88bd
00000310: 24cc c2bd fbad e9bd 26e3 9fbd 7734 083d
00000320: 3aa8 793d 0ace b9bd cfa6 69bd b33c 19be
00000330: 2b7f d33b c068 91bd 0243 1fbc 0c97 14bd
00000340: 0eed bcbd a805 00be d558 05be de9b 003d
00000350: 7af4 b83d db06 573c c0a8 e7bc 1105 113d
00000360: a306 3cbb a212 ccbc 1a09 6cbe 13c5 073e
00000370: 3ccc f33c 47ac d63d cd1f 7cbd 3790 38bd
00000380: ab21 8f3d 493e dcbb a2a7 a33d 58c4 af3d
00000390: b64b c93d 71d9 3dbd b828 89bd fc61 d83c
000003a0: dcac 703d ab3b 44be b455 8e3c 3b7b c73c
000003b0: 439c 703d f629 ddbd ebf8 223d 247b 2d3c
000003c0: 98e0 803c 697b 0d3e c8fc 4abd 5834 753d
000003d0: 3dce 99bd 706c 88bd ce03 a6bd b29f 24be
000003e0: 4650 a5bd 2c1c dc3d 5ab9 753e 432d 183e
000003f0: 7aad 313c 23b0 4c3d ada5 53bd 2ae6 983d

separable_conv2d_43/depthwise_kernel:0 f4 [128, 1, 3, 3]
-0.03199009 -0.045399785 0.12017978 -0.22066717 -0.15498483 -0.033355147 -0.0059541403 0.013869157
-0.094191894 0.07031451 -0.13725695 -0.014548038 -0.005936609 0.0015673602 -0.08817295 0.07241282
0.07330277 0.031750128 -0.14047025 -0.11579427 -0.005312848 0.067991115 0.16466196 0.08647533
0.033212192 0.064687066 0.03403711 -0.089127 -0.096110314 -0.05132233 -0.06742612 0.049164433
0.019366024 0.09838804 0.1485355 0.14686993 -0.0035371657 0.07088009 0.052028917 0.031281833
0.12321656 -0.0028042775 -0.016664883 0.06915896 0.10059848 -0.04123986 0.04898444 0.17105258
-0.017235644 0.061250754 -0.085902795 -0.10376543 0.116181 0.0547295 0.0048369407 0.113375306
0.09941521 -0.054706823 0.08172742 0.09913608 0.01888246 -0.25288105 -0.033575837 -0.051349252
0.0188648 0.12624924 0.1199143 -0.086176395 -0.12361477 -0.027607262 -0.08511589 0.013293285
0.07368649 0.076599516 0.020069825 0.0002844856 0.06579445 -0.091108434 -0.012297338 0.055175923
0.015351742 -0.16496727 -0.07780012 -0.011663095 -0.09645975 -0.03780893 -0.012361561 -0.039353997
-0.062451873 -0.13576683 -0.06612073 -0.056903888 -0.09658691 0.013897552 -0.111672394 -0.16802214
0.09919563 0.14850038 0.013525831 0.04755313 0.11940322 0.076253764 0.052002292 -0.12469745
-0.045034442 0.073296554 0.039845314 0.09575509 -0.056358855 0.09555795 -0.07824323 -0.024112841
0.127953 0.1111856 -0.035523225 0.14227304 -0.12295118 -0.098954216 -0.090575665 -0.12283277
0.0910754 0.07500606 -0.12899736 -0.014098806 -0.05413404 0.022346413 -0.020237273 0.049416125
0.031187808 -0.11270713 -0.20741358 -0.07391253 -0.07747286 0.017219024 0.13289629 0.014561675
0.08616315 0.06834914 0.070290715 0.0002068202 0.050328385 -0.013534928 -0.045394033 -0.021712402
0.123752065 0.13467783 0.032967146 0.049170118 0.07084727 0.02594173 -0.054968666 0.11361106
-0.019791003 0.04615283 0.05717607 0.04177298 -0.015894277 0.030272108 0.09277093 0.08824583
0.1462758 0.014342837 -0.024086127 -0.030324906 -0.18628523 -0.11061017 -0.0026019523 0.017448153
-0.015377024 -0.022763738 0.2208125 -0.15833378 -0.00957864 0.08191579 0.07656892 0.0899815
0.11453008 -0.03898984 -0.05420942 -0.023407165 -0.035205413 -0.021441618 0.13306126 0.22342663
0.19441687 -0.13970199 -0.05995775 -0.13147573 0.03298617 -0.17693643 -0.08568188 0.13004422
0.08671563 0.07176557 0.06624092 0.037272938 0.058347024 -0.065517634 0.12534487 0.11104972
0.13781235 0.012295143 0.07061055 -0.060243357 0.08089648 0.05947772 -0.13722382 0.015457806
-0.0760559 0.038118903 0.023889324 0.06647081 -0.096334964 -0.13942899 0.040286213 -0.103021875
0.16968557 0.027575286 0.1433662 0.13438877 -0.08459971 -0.053078286 0.16156957 0.0030214242
0.042602457 0.02537924 0.09443439 -0.016818427 -0.081274025 0.043236736 -0.024264166 -0.026612358
-0.19137172 -0.16458896 -0.010944304 0.037555773 -0.005124205 -0.15554248 -0.13015291 -0.09128874
0.0822301 -0.0032901068 0.056147054 -0.08690781 -0.186852 0.046948746 -0.20647182 -0.11639207
0.036406916 0.04390946 0.0176293 0.05658749 -0.12500465 -0.039845135 0.10251991 -0.1889444
00000000: 0a08 03bd 20f5 39bd d120 f63d 93f6 61be
00000010: 58b4 1ebe 689f 08bd f31a c3bb 763b 633c
00000020: aee7 c0bd 0e01 903d 168d 0cbe e55a 6ebc
00000030: e387 c2bb e26f cd3a 0594 b4bd 2c4d 943d
00000040: c31f 963d 6c0c 023d 6fd7 0fbe 8c25 edbd
00000050: 6617 aebb ed3e 8b3d 259d 283e fa19 b13d
00000060: 8209 083d a77a 843d 7f6a 0b3d 3788 b6bd
00000070: 7cd5 c4bd 5d37 52bd b516 8abd a560 493d
00000080: 7fa5 9e3c ab7f c93d b119 183e 1265 163e
00000090: cbcf 67bb 9529 913d 461c 553d 6121 003d
000000a0: f758 fc3d f8c7 37bb cb84 88bc 36a3 8d3d
000000b0: 9306 ce3d 21eb 28bd e8a3 483d 6828 2f3e
000000c0: c431 8dbc 12e2 7a3d ceed afbd f882 d4bd
000000d0: 4ef0 ed3d 0a2c 603d 337f 9e3b 5031 e83d
000000e0: 349a cb3d 4314 60bd b560 a73d db07 cb3d
000000f0: 64af 9a3c a079 81be d186 09bd 9853 52bd
00000100: 5a8a 9a3c 7b47 013e a195 f53d 407d b0bd
00000110: be29 fdbd a028 e2bc 3d51 aebd 14cc 593c
00000120: f1e8 963d 35e0 9c3d 7969 a43c 0327 9539
00000130: 3ebf 863d 0f97 babd c67a 49bc 2600 623d
00000140: df85 7b3c 2eed 28be ab55 9fbd 9116 3fbc
00000150: b08c c5bd 89dd 1abd 2588 4abc a831 21bd
00000160: 89cd 7fbd 7606 0bbe 4e6a 87bd 0d14 69bd
00000170: 5ccf c5bd 8fb2 633c 7fb4 e4bd ff0d 2cbe
00000180: 1427 cb3d 7c10 183e 729b 5d3c 12c7 423d
00000190: ad89 f43d ef2a 9c3d 5b00 553d 6061 ffbd
000001a0: 0976 38bd 811c 963d d734 233d 3f1b c43d
000001b0: 8bd8 66bd e3b3 c33d fd3d a0bd 4b88 c5bc
000001c0: 1c06 033e 47b5 e33d cd80 11bd 06b0 113e
000001d0: d4cd fbbd 82a8 cabd bc7f b9bd bf8f fbbd
000001e0: bd85 ba3d c79c 993d e217 04be aefe 66bc
000001f0: a8bb 5dbd d30f b73c a3c8 a5bc 9068 4a3d
00000200: 937d ff3c ffd2 e6bd 3a64 54be 745f 97bd
00000210: 17aa 9ebd e90e 8d3c f715 083e 1794 6e3c
00000220: 4e76 b03d a2fa 8b3d 94f4 8f3d e0dd 5839
00000230: 2325 4e3d 9ac1 5dbc 18ef 39bd 35de b1bc
00000240: b971 fd3d fce8 093e 8f08 073d 9b66 493d
00000250: 6018 913d c083 d43c d326 61bd eaac e83d
00000260: be20 a2bc c00a 3d3d 7431 6a3d 251a 2b3d
00000270: b734 82bc 36fd f73c affe bd3d 3bba b43d
00000280: 53c9 153e 38fe 6a3c 4550 c5bc f06b f8bc
00000290: 8ec1 3ebe 9687 e2bd 8485 2abb 6eef 8e3c
000002a0: eaef 7bbc 057b babc ac1c 623e 4022 22be
000002b0: baef 1cbc 77c3 a73d 2ad0 9c3d 3848 b83d
000002c0: bf8e ea3d cfb3 1fbd b20a 5ebd 62c0 bfbc
000002d0: 8d33 10bd 55a6 afbc 3641 083e f3c9 643e
000002e0: 3715 473e 0a0e 0fbe 4296 75bd 93a1 06be
000002f0: 821c 073d d32e 35be fb79 afbd 502a 053e
00000300: f797 b13d d4f9 923d 52a9 873d 82ab 183d
00000310: 4afd 6e3d 1c2e 86bd 685a 003e 096e e33d
00000320: ae1e 0d3e 9171 493c 449c 903d bdc1 76bd
00000330: 0ead a53d e99e 733d 6784 0cbe bd42 7d3c
00000340: 32c3 9bbd 9122 1c3d 8bb3 c33c d921 883d
00000350: 444b c5bd 79c6 0ebe 2803 253d 22fd d2bd
00000360: 0ec2 2d3e 91e5 e13c 97ce 123e 369d 093e
00000370: 9d42 adbd 9e68 59bd 7e72 253e 1603 463b
00000380: ea7f 2e3d 20e8 cf3c d166 c13d ccc6 89bc
00000390: ff72 a6bd 0119 313d a5c5 c6bc 2902 dabc
000003a0: f3f6 43be 028a 28be bd4f 33bc 15d4 193d
000003b0: f2e8 a7bb 8746 1fbe ce46 05be 97f5 babd
000003c0: 4168 a83d d59e 57bb 74fa 653d b9fc b1bd
000003d0: 2156 3fbe 544d 403d 596d 53be f75e eebd
000003e0: 6b1f 153d 68da 333d 526b 903c 49c8 673d
000003f0: 3801 00be a734 23bd f5f5 d13d a47a 41be

separable_conv2d_42/depthwise_kernel:0 f4 [128, 1, 3, 3]
-0.2567584 -0.070665486 0.11743851 0.039958153 0.11904192 0.08811394 0.073349856 -0.06377703
-0.11295665 0.053183027 0.057513174 0.12483378 -0.058515083 0.15748614 0.1164121 -0.10086181
0.07227117 0.056093235 0.034048893 0.111365326 0.06470386 -0.075901255 0.057559177 0.123442635
-0.11584535 -0.038771 -0.02197188 0.14649263 -0.05902614 -0.099617995 -0.044997882 -0.025969911
-0.15508746 -0.036441024 -0.038968936 -0.019879835 0.14838631 0.08756395 -0.021729816 0.008146991
-0.10924693 -0.10392936 -0.11351373 -0.091531284 -0.051740695 -0.11595268 -0.021998398 -0.045214776
-0.11264091 -0.011859855 -0.030335842 0.079615004 0.13740677 -0.019793963 0.05071977 -0.15551916
-0.039143663 -0.011003969 -0.08432698 -0.06505744 0.21700114 0.16169149 0.18666293 -0.008931555
-0.07582288 -0.110915124 -0.10232763 -0.22249196 -0.079103604 -0.067914955 -0.1108361 -0.023940332
0.014375169 0.0044486728 -0.054955985 0.07149303 -0.014569322 -0.17233862 -0.14634755 -0.031600107
0.061313737 0.07636525 0.0034533204 0.07152798 0.026587319 -0.03600744 -0.15002914 0.10192146
0.09728682 -0.025426256 0.043523673 -0.1273161 -0.11007079 0.050207462 -0.039872855 -0.1251678
0.068712674 0.028394403 -0.025422843 -0.04642288 -0.17078938 -0.031435456 -0.0100580705 0.048920743
-0.063794 0.15880992 0.15906334 -0.06564066 -0.004336805 -0.043125875 0.024856646 0.01939812
0.05907084 1.5065917e-06 0.1273112 0.14047885 -0.070802085 -0.24695231 -0.06820055 0.15431093
-0.08296723 0.008275136 0.13825683 -0.019107386 -0.07512422 0.1472941 -0.09398749 0.07432351
0.08744423 0.07097924 -0.05570055 -0.028459728 0.059611972 -0.16451241 -0.18837649 -0.15234116
-0.083681755 -0.044573992 0.023734113 0.0881744 0.082645476 0.136396 0.15334295 0.060200244
0.1637443 0.04964863 -0.05151575 0.040000822 -0.0050603556 -0.14541791 0.052723333 0.027796073
-0.009350923 -0.06849262 -0.13058242 -0.01694247 0.12596194 0.041231673 -0.04830378 0.08360864
-0.035417162 -0.08205284 0.016040059 0.07422593 0.1448821 0.10566678 0.021631315 0.038891234
0.11639179 -0.07720786 -0.119157754 0.13658026 0.12942022 0.07103162 0.0675554 0.05642269
0.062951274 -0.043126166 -0.19368169 -0.006867924 -0.03142625 -0.0063819624 0.08464409 -0.13844512
0.025370754 0.20668042 0.06837055 -0.10380915 0.041886386 0.09233652 -0.14662571 -0.041289754
0.12650988 -0.07029229 0.032512784 -0.048833482 -0.01709543 0.10357215 0.06459069 0.07544636
-0.0664872 -0.035699423 -0.013831405 0.094010495 -0.18859386 -0.052937012 -0.08854519 -0.06744829
-0.19114949 0.108422846 -0.0010718419 -0.09086398 -0.0015076973 -0.0046227747 0.013788689 0.011276208
-0.08981708 -0.07347302 0.012109047 -0.16785078 -0.2160498 -0.035041858 -0.04131412 -0.053435083
0.029599465 -0.10944523 0.022188582 0.064962484 -0.062252812 0.08398103 0.23067646 0.07899278
0.060832113 0.02573897 0.1580663 0.059019037 -0.1641163 0.11003589 0.062436547 -0.062830836
-0.11991658 0.06520989 0.06974614 -0.11519561 -0.018664706 0.11704788 0.056334198 0.17668197
0.18624479 0.020716345 -0.08202974 0.03839226 -0.043816246 0.05840031 0.1578291 -0.01128944
00000000: d675 83be 11b9 90bd 9a83 f03d 29ab 233d
00000010: 40cc f33d 1575 b43d 7338 963d 889d 82bd
00000020: d155 e7bd 72d6 593d ef92 6b3d daa8 ff3d
00000030: 83ad 6fbd 0c44 213e 7869 ee3d a390 cebd
00000040: e802 943d 05c2 653d da76 0b3d 8113 e43d
00000050: 7583 843d 1e72 9bbd 2cc3 6b3d 7ecf fc3d
00000060: 5440 edbd 57ce 1ebd 5ffe b3bc 2a02 163e
00000070: 65c5 71bd 8504 ccbd b34f 38bd dabe d4bc
00000080: 3fcf 1ebe 2f43 15bd e49d 1fbd 09db a2bc
00000090: 95f2 173e ba54 b33d ba02 b2bc f57a 053c
000000a0: dbbc dfbd ebd8 d4bd e379 e8bd c174 bbbd
000000b0: 0dee 53bd 9978 edbd fc35 b4bc 2133 39bd
000000c0: 47b0 e6bd d64f 42bc df82 f8bc 310d a33d
000000d0: 5cb4 0c3e f326 a2bc 89bf 4f3d 6a40 1fbe
000000e0: 1b55 20bd fe49 34bc a0b3 acbd d63c 85bd
000000f0: 8c35 5e3e 7492 253e 9124 3f3e a855 12bc
00000100: 0749 9bbd 7827 e3bd 2691 d1bd efd4 63be
00000110: 1201 a2bd ff16 8bbd 0afe e2bd 841e c4bc
00000120: d485 6b3c 2cc6 913b 8719 61bd f06a 923d
00000130: 2ab4 6ebc 8979 30be 22dc 15be 1d6f 01bd
00000140: 1d24 7b3d 6265 9c3d 1a51 623b 437d 923d
00000150: a6cd d93c 8a7c 13bd 3da1 19be 33bc d03d
00000160: 503e c73d b94a d0bc e145 323d 275f 02be
00000170: cb6c e1bd 57a6 4d3d b851 23bd fd2b 00be
00000180: 3bb9 8c3d 619b e83c 9143 d0bc eb25 3ebd
00000190: 69e3 2ebe 77c2 00bd 9bca 24bc 1e61 483d
000001a0: 6ea6 82bd 119f 223e 80e1 223e 9c6e 86bd
000001b0: c21b 8ebb c2a4 30bd 2aa0 cb3c cee8 9e3c
000001c0: 44f4 713d 1936 ca35 de5d 023e b0d9 0f3e
000001d0: af00 91bd 11e1 7cbe bbac 8bbd af03 1e3e
000001e0: b9ea a9bd 7094 073c 3393 0d3e 1887 9cbc
000001f0: bada 99bd 44d4 163e 837c c0bd ed36 983d
00000200: f615 b33d 905d 913d 4326 64bd 6024 e9bc
00000210: af2b 743d f175 28be c4e5 40be 52ff 1bbe
00000220: 5761 abbd 3893 36bd 0b6e c23c c894 b43d
00000230: 0842 a93d 65ab 0b3e ef05 1d3e 8894 763d
00000240: 96ac 273e 5d5c 4b3d 2e02 53bd e7d7 233d
00000250: 57d1 a5bb 6fe8 14be 6cf4 573d 97b4 e33c
00000260: 9d34 19bc dc45 8cbd 66b7 05be efca 8abc
00000270: 2bfc 003e 8be2 283d 2fda 45bd 023b ab3d
00000280: 9611 11bd 520b a8bd 7166 833c c403 983d
00000290: f95b 143e d367 d83d 2834 b13c 6a4c 1f3d
000002a0: d25e ee3d 281f 9ebd fb08 f4bd b2db 0b3e
000002b0: bc86 043e 0779 913d 7c5a 8a3d 7b1b 673d
000002c0: 99ec 803d 10a5 30bd 7e54 46be 520c e1bb
000002d0: d0b8 00bd c81f d1bb e159 ad3d 8fc4 0dbe
000002e0: 54d6 cf3c 08a4 533e dc05 8c3d e499 d4bd
000002f0: 0f91 2b3d ee1a bd3d 0d25 16be 721f 29bd
00000300: ce8b 013e 67f5 8fbd 202c 053d 9e05 48bd
00000310: b70b 8cbc a31d d43d 2048 843d 9f83 9a3d
00000320: 712a 88bd 8f39 12bd 1e9d 62bc 9388 c03d
00000330: c01e 41be 7bd4 58bd 2e57 b5bd 5422 8abd
00000340: b1bc 43be cc0c de3d 0c7d 8cba e516 babd
00000350: ed9d c5ba a57a 97bb f4e9 613c d8bf 383c
00000360: 04f2 b7bd 0679 96bd 0665 463c 13e1 2bbe
00000370: 293c 5dbe 0d88 0fbd ff38 29bd bfde 5abd
00000380: 947a f23c d224 e0bd d4c4 b53c 0d0b 853d
00000390: cefc 7ebd 3ffe ab3d 7336 6c3e f7c6 a13d
000003a0: 182b 793d 88da d23c 22dc 213e f2bd 713d
000003b0: 1a0e 28be 7f5a e13d 77bd 7f3d 74ad 80bd
000003c0: d396 f5bd c38c 853d 10d7 8e3d adeb ebbd
000003d0: bae6 98bc cdb6 ef3d b0be 663d 1eec 343e
000003e0: f4b6 3e3e 53b5 a93c 35ff a7bd 3441 1d3d
000003f0: aa78 33bd 2a35 6f3d f49d 213e 58f7 38bc

separable_conv2d_41/depthwise_kernel:0 f4 [64, 1, 3, 3]
-0.11851344 -0.2710171 0.04856839 -0.07707942 -0.08800555 0.09827048 0.046031978 0.049143016
0.070714824 0.011647981 0.014580778 -0.0745966 -0.21279268 -0.09202526 -0.12444649 -0.039524123
-0.057399645 0.04255387 -0.009446176 -0.20535687 0.025738679 -0.08807473 -0.2628808 0.0034029195
0.06339508 0.03219008 0.1833415 -0.15634482 -0.04299774 -0.12620467 -0.1595332 -0.19390903
-0.09756284 0.12714092 0.11210382 -0.027955512 -0.101422735 -0.05488066 -0.21313746 -0.034695487
0.17355785 0.030259602 0.042673975 0.14353639 0.014981428 0.0006800488 -0.11876293 -0.21118364
-0.11366417 -0.07025228 -0.03464379 0.06645263 0.123235956 -0.032631803 -0.03053437 -0.051259603
-0.11508721 -0.04570375 -0.07011395 -0.0712957 0.07856783 0.08234545 0.06437772 0.027413355
-0.06968052 -0.020350248 0.17359921 -0.09419563 -0.1864288 0.09819455 -0.064604394 -0.07537236
0.01308371 0.041046556 -0.069475554 0.21693887 0.15438806 -0.07148853 -0.027325122 -0.098042265
-0.25399077 0.04239579 -0.026926909 -0.15617613 0.11228083 -0.09757122 -0.12478756 0.0130228065
0.12128744 -0.1524237 0.11419393 -0.047693253 0.038692933 0.22782907 0.12600802 -0.0088563915
-0.02627147 0.043466322 0.06945794 0.12850884 0.048661195 -0.023986174 -0.11130586 0.13809945
0.22322175 -0.14577971 -0.052174512 -0.054137904 -0.07285126 -0.16084744 -0.031350218 -0.062613964
0.000110958674 -0.108230725 0.018866591 -0.072289765 -0.09069198 -0.11427843 -0.15656604 -0.06635452
0.039335247 0.14717422 0.14523992 -0.06996504 0.02193973 0.04236577 0.04390665 0.12693842
0.14359316 0.04008083 0.23466617 0.10498213 -0.021901095 0.18722728 0.07244249 0.15352125
-0.10688387 -0.12999411 -0.00802886 0.0014006998 -0.19086683 -0.15066418 0.020201823 0.06872329
-0.09470135 0.083500355 -0.06916765 0.020531503 0.22543511 0.076514915 -0.08431815 0.041038517
-0.059475522 0.056325033 0.124198906 0.04888049 -0.10276676 0.038377367 -0.04929277 -0.1125022
-0.13378927 -0.13689849 -0.042282943 0.053933192 0.1010581 -0.11688707 -0.13777056 -0.24038118
0.072182335 0.11848377 -0.028056582 -0.007867256 -0.026011588 -0.09904323 -0.05084712 -0.102989666
-0.18731602 -0.020752843 0.07848084 -0.030853203 0.18334027 0.0503158 0.26626062 0.17022997
-0.049109675 0.09438134 0.009567488 -0.107093714 -0.020125207 -0.09271431 -0.05113011 -0.01868565
0.0069061336 0.19759299 0.02872211 0.061146222 0.16720192 -0.040322844 0.022003619 -0.13338704
-0.12977935 -0.039146136 -0.12346868 0.06689378 0.095805414 0.10283366 0.11145539 -0.039389554
-0.040794175 0.0322497 -0.18129703 0.11154869 0.13231444 -0.11388834 -0.007353508 0.18106419
-0.055287637 0.20299086 0.0032874777 -0.11788238 0.031008938 -0.09846012 -0.037539132 -0.22094403
-0.17144139 0.054624792 0.14186311 0.036946036 0.32667622 0.09795741 -0.03001413 0.062181577
0.06593893 -0.10197847 -0.11834118 0.11951279 0.12383757 -0.004696754 -0.013241832 -0.0153685855
0.05021694 -0.22192204 -0.05904339 -0.1283687 -0.21234669 -0.07855757 -0.057316724 -0.1793339
-0.06391269 0.11131669 -0.0066248565 0.090642855 0.017717863 0.17626648 -0.08269198 0.0021743223
00000000: 2db7 f2bd c1c2 8abe a6ef 463d d1db 9dbd
00000010: 413c b4bd 0942 c93d 078c 3c3d 304a 493d
00000020: efd2 903d 2cd7 3e3c 37e4 6e3c 1ac6 98bd
00000030: 53e6 59be bd77 bcbd cddd febd 0ce4 21bd
00000040: e41b 6bbd f74c 2e3d 22c4 1abc 1249 52be
00000050: ecd9 d23c 8660 b4bd 5098 86be 8403 5f3b
00000060: 48d5 813d bfd9 033d e0bd 3b3e db18 20be
00000070: 661e 30bd cc3b 01be ac5c 23be 1790 46be
00000080: 07cf c7bd 3b31 023e b096 e53d f502 e5bc
00000090: b9b6 cfbd 8bca 60bd b540 5abe db1c 0ebd
000000a0: 26b9 313e fce2 f73c e8ca 2e3d 34fb 123e
000000b0: aa74 753c 4d45 323a fb39 f3bd 8640 58be
000000c0: c3c8 e8bd 6de0 8fbd a6e6 0dbd 5118 883d
000000d0: 2263 fc3d eda8 05bd 3723 fabc 97f5 51bd
000000e0: d8b2 ebbd db33 3bbd e797 8fbd 7b03 92bd
000000f0: 2ce8 a03d bba4 a83d 77d8 833d f991 e03c
00000100: a9b4 8ebd 90b5 a6bc fec3 313e a3e9 c0bd
00000110: 31e7 3ebe 391a c93d 4f4f 84bd d35c 9abd
00000120: 0f5d 563c 6f20 283d 3349 8ebd 3925 5e3e
00000130: e717 1e3e 9468 92bd efd8 dfbc 62ca c8bd
00000140: 140b 82be 35a7 2d3d d295 dcbc a3ec 1fbe
00000150: 7ef3 e53d 6bd3 c7bd 9f90 ffbd 9c5d 553c
00000160: 8d65 f83d f514 1cbe 82de e93d 005a 43bd
00000170: 7b7c 1e3d 064c 693e 3f08 013e 661a 11bc
00000180: 4437 d7bc be09 323d f73f 8e3d d297 033e
00000190: f650 473d a77e c4bc 54f4 e3bd f169 0d3e
000001a0: 3e94 643e 4747 15be f1b4 55bd b5bf 5dbd
000001b0: 0b33 95bd 31b5 24be 1669 00bd c03b 80bd
000001c0: 7cb2 e838 12a8 ddbd 1c8e 9a3c a80c 94bd
000001d0: b8bc b9bd cf0a eabd d952 20be e1e4 87bd
000001e0: ff1d 213d d7b4 163e c6b9 143e d549 8fbd
000001f0: f3ba b33c bb87 2d3d 76d7 333d 25fc 013e
00000200: 160a 133e cc2b 243d 544c 703e df00 d73d
00000210: ed69 b3bc 82b8 3f3e ba5c 943d ad34 1d3e
00000220: eee5 dabd 2d1d 05be 7b8b 03bc b097 b73a
00000230: 9872 43be b647 1abe 4b7e a53c ccbe 8c3d
00000240: c8f2 c1bd 3c02 ab3d c5a7 8dbd af31 a83c
00000250: 76d8 663e dab3 9c3d ffae acbd 0118 283d
00000260: 9b9c 73bd 14b5 663d ff5b fe3d e936 483d
00000270: 6177 d2bd 9631 1d3d 37e7 49bd 8e67 e6bd
00000280: 0e00 09be 1e2f 0cbe e130 2dbd 0de9 5c3d
00000290: 8df7 ce3d 7d62 efbd ba13 0dbe 7c26 76be
000002a0: 55d4 933d 9ea7 f23d ebd6 e5bc aae5 00bc
000002b0: 4116 d5bc 2dd7 cabd 1245 50bd 3fec d2bd
000002c0: c5cf 3fbe de01 aabc 90ba a03d dbbf fcbc
000002d0: 8dbd 3b3e f117 4e3d 5053 883e c450 2e3e
000002e0: 3a27 49bd 014b c13d f4c0 1c3c f353 dbbd
000002f0: 9edd a4bc 00e1 bdbd ce6d 51bd a612 99bc
00000300: d94c e23b d155 4a3e a14a eb3c 7674 7a3d
00000310: fb36 2b3e 9129 25bd ef40 b43c 9d96 08be
00000320: e1e4 04be b357 20bd 26dd fcbd 9bff 883d
00000330: a135 c43d 749a d23d b942 e43d f156 21bd
00000340: cb17 27bd 4318 043d eea5 39be a473 e43d
00000350: 707d 073e 4a3e e9bd b2f5 f0bb e468 393e
00000360: 4a75 62bd d6dc 4f3e b972 573b 516c f1bd
00000370: 7506 fe3c 76a5 c9bd a2c2 19bd 273f 62be
00000380: 558e 2fbe 3fbe 5f3d 9044 113e ba54 173d
00000390: 1b42 a73e e59d c83d 31e0 f5bc 1cb2 7e3d
000003a0: fd0a 873d 17da d0bd dc5c f2bd 1fc3 f43d
000003b0: 8d9e fd3d 3ae7 99bb 45f4 58bc 85cc 7bbc
000003c0: 47b0 4d3d 883f 63be 7bd7 71bd 1673 03be
000003d0: 6971 59be cbe2 a0bd f1c4 6abd 4ea3 37be
000003e0: a8e4 82bd 01fa e33d 5315 d9bb f6a2 b93d
000003f0: 0d25 913c 337f 343e 6a5a a9bd 137f 0e3b

separable_conv2d_40/depthwise_kernel:0 f4 [64, 1, 3, 3]
-0.046902202 -0.016886216 0.019851403 0.14107367 0.13913198 -0.10510012 0.06004425 0.28485107
0.09712732 -0.015802572 -0.123366386 -0.13826102 -0.10437534 -0.20459814 -0.2098809 -0.10395515
-0.14360039 -0.12619066 0.05456878 0.0069364836 0.035272304 0.16035604 0.0231594 -0.093562044
0.15123442 0.0846385 -0.048769977 -0.1042494 -0.07661167 -0.05978003 -0.13832319 -0.14278097
-0.0688505 0.0040186597 0.11359026 0.13379453 -0.02253452 -0.059739143 -0.030604908 0.11576653
0.04210937 -0.051188458 0.12585697 0.12207075 -0.19785418 0.01564952 0.020249184 0.08705264
-0.054895334 -0.059351105 0.14360903 -0.008264533 -0.20755191 -0.10807023 0.020122066 -0.06441529
-0.16237333 0.14996634 -0.04971688 -0.13867594 0.080336995 -0.047847494 -0.14784335 -0.06382073
-0.023014115 0.053418215 -0.014023255 0.21667887 0.13348576 0.04050546 0.28315547 0.15892543
-0.026274558 -0.06386946 0.09844445 -0.014633761 -0.02165929 -0.03833118 0.11788986 0.11446696
0.13653022 0.19098556 -0.04938812 0.013427541 -0.08030609 -0.2031774 -0.05100584 0.023780335
-0.00028712332 0.024606636 0.12725927 0.031908523 -0.19111013 0.20181046 0.03667982 -0.07069913
0.082215354 0.043724675 0.03869464 0.080152266 0.17792764 0.13504079 -0.07482851 0.08840805
0.15819202 0.017563786 -0.051199842 0.010461447 0.09901383 0.12701872 -0.059779335 0.03522822
0.1672441 0.09708088 -0.10361406 0.022469727 -0.023516642 -0.10372534 -0.086325906 -0.13390571
-0.03162949 -0.06372115 -0.13716435 -0.023519794 -0.03372922 -0.1858671 -0.08692388 -0.045059327
-0.034987286 -0.28423634 -0.12924907 0.05927325 -0.09760684 0.01545143 -0.0045896433 0.16763197
-0.017962622 -0.13229568 0.0778936 -0.19871333 -0.2510915 -0.01132078 -0.09253704 -0.040673256
0.16599888 0.02807462 -0.07518054 0.07296285 0.016224643 -0.12120772 -0.20428076 -0.13462007
0.033861786 0.16013129 -0.094621785 -0.15038949 0.11197721 -0.05586527 -0.18959011 -0.019566394
-0.07944717 0.03058215 0.08036661 0.114809 0.054802988 0.07244283 0.11415065 0.07822966
-0.052932467 -0.15753712 -0.08173358 0.13500687 -0.011676342 -0.16526058 0.12619025 -0.029306518
-0.13658121 -0.10158598 -0.073177926 -0.0009208891 -0.06467262 0.022694893 0.12809713 -0.1052906
-0.00658979 0.089213215 -0.2498305 0.07871809 0.080965616 -0.0877559 -0.03938978 0.007574006
-0.16182426 -0.05942469 -0.016141986 -0.04955442 -0.04050893 0.07796738 -0.14604317 0.07614541
0.1299879 0.033447787 0.16690505 0.11487989 0.104425594 0.06972791 0.06686134 -0.07828162
-0.010459959 0.0957913 -0.067570694 -0.09462576 -0.16530958 -0.04900337 -0.100265056 -0.16092552
-0.07588826 -0.1766679 -0.046940982 -0.2818814 -0.075593404 0.05491439 -0.05540771 0.023377428
0.05865266 0.08184905 0.18330042 0.03272104 -0.13438621 -0.0034289306 -0.011729359 -0.062353134
-0.0056771315 -0.010397291 0.1572651 0.0037691416 -0.051411636 -0.027846178 -0.20815623 -0.089798376
-0.16073987 -0.08098904 -0.027100798 0.13887845 0.2297587 0.049860056 0.1280482 0.14853361
-0.10571563 -0.072869465 -0.13150474 -0.22589868 -0.16061711 -0.107653156 0.04369355 -0.16733398
00000000: 861c 40bd f654 8abc 699f a23c 9e75 103e
00000010: 9d78 0e3e bb3e d7bd f6f0 753d 00d8 913e
00000020: b0ea c63d 6574 81bc 84a7 fcbd 4c94 0dbe
00000030: bdc2 d5bd 2d82 51be 05eb 56be 70e6 d4bd
00000040: fb0b 13be 2038 01be 8383 5f3d 714b e33b
00000050: b179 103d 6034 243e c8b8 bd3c 759d bfbd
00000060: 32dd 1a3e f356 ad3d 07c3 47bd b680 d5bd
00000070: 94e6 9cbd e8db 74bd 98a4 0dbe 2d35 12be
00000080: 7e01 8dbd f6ae 833b 03a2 e83d 6f01 093e
00000090: 509a b8bc 08b1 74bd 25b7 fabc 0117 ed3d
000000a0: e07a 2c3d fdaa 51bd a6e0 003e 3b00 fa3d
000000b0: 499a 4abe 6c33 803c 9ee1 a53c a848 b23d
000000c0: eed9 60bd 251a 73bd 3f0e 133e f767 07bc
000000d0: 7d88 54be ed53 ddbd 08d7 a43c 2aec 83bd
000000e0: 3245 26be c790 193e eda3 4bbd 1101 0ebe
000000f0: b987 a43d bcfb 43bd 3f64 17be 71b4 82bd
00000100: 1988 bcbc 0fcd 5a3d cbc1 65bc 11e1 5d3e
00000110: 7eb0 083e 0ee9 253d c1f9 903e 59bd 223e
00000120: be3d d7bc fecd 82bd 3e9d c93d 71c2 6fbc
00000130: d36e b1bc 2801 1dbd 3d70 f13d a76d ea3d
00000140: 94ce 0b3e b891 433e 334b 4abd 30ff 5b3c
00000150: 8577 a4bd bd0d 50be 80eb 50bd face c23c
00000160: 0a89 96b9 db93 c93c 4150 023e 83b2 023d
00000170: 60b2 43be 67a7 4e3e 943d 163d b5ca 90bd
00000180: 8660 a83d a518 333d 457e 1e3d df26 a43d
00000190: aa32 363e 2248 0a3e b13f 99bd 480f b53d
000001a0: 17fd 213e eee1 8f3c edb6 51bd 7d66 2b3c
000001b0: c3c7 ca3d 3211 023e 2ddb 74bd 774b 103d
000001c0: 0a42 2b3e 57d2 c63d 9c33 d4bd 6f12 b83c
000001d0: f9a5 c0bc f36d d4bd a3cb b0bd 941e 09be
000001e0: ed8d 01bd 3c80 82bd d074 0cbe 95ac c0bc
000001f0: a727 0abd f253 3ebe 2605 b2bd 2190 38bd
00000200: d44e 0fbd 6d87 91be de59 04be 82c8 723d
00000210: 18e6 c7bd ff27 7d3c b864 96bb b7a7 2b3e
00000220: 5926 93bc 8578 07be ae86 9f3d 827b 4bbe
00000230: 118f 80be cb7a 39bc 0f84 bdbd 0099 26bd
00000240: 9cfb 293e bffc e53c 41f8 99bd 8c6d 953d
00000250: 8be9 843c c13b f8bd fa2e 51be d8d9 09be
00000260: a8b2 0a3d 75f9 233e 11c9 c1bd b4ff 19be
00000270: 4f54 e53d fbd2 64bd e923 42be b449 a0bc
00000280: 33b5 a2bd 6b87 fa3c 4097 a43d fb20 eb3d
00000290: 1979 603d e85c 943d d1c7 e93d df36 a03d
000002a0: b7cf 58bd 6951 21be ef63 a7bd 3e3f 0a3e
000002b0: 214e 3fbc 123a 29be 0438 013e 3914 f0bc
000002c0: f2db 0bbe 4f0c d0bd 4fde 95bd d267 71ba
000002d0: 1473 84bd a4ea b93c e52b 033e 99a2 d7bd
000002e0: 2aef d7bb 6bb5 b63d 91d3 7fbe f336 a13d
000002f0: 4dd1 a53d 5eb9 b3bd 2e57 21bd 5e2f f83b
00000300: 42b5 25be 4e67 73bd 333c 84bc 93f9 4abd
00000310: b1ec 25bd 5dad 9f3d 578c 15be 20f2 9b3d
00000320: 8c1b 053e 8c00 093d 28e9 2a3e 2646 eb3d
00000330: 16dd d53d 82cd 8e3d 99ee 883d 1d52 a0bd
00000340: 3f60 2bbc 3b2e c43d 8162 8abd 27cb c1bd
00000350: ea46 29be c2b7 48bd c457 cdbd a9c9 24be
00000360: 4e6b 9bbd 6ee8 34be 3045 40bd c252 90be
00000370: b7d0 9abd e9ed 603d 32f3 62bd 0582 bf3c
00000380: c63d 703d 7aa0 a73d 1bb3 3b3e 7f06 063d
00000390: 8a9c 09be e9b7 60bb 7f2c 40bc 0066 7fbd
000003a0: 3b07 babb 6659 2abc 1a0a 213e b403 773b
000003b0: 0295 52bd ab1d e4bc e826 55be 36e8 b7bd
000003c0: fe98 24be 95dd a5bd 7e02 debc 2736 0e3e
000003d0: dd45 6b3e 0f3a 4c3d 111f 033e 3219 183e
000003e0: 7081 d8bd 963c 95bd 2ea9 06be fc51 67be
000003f0: d078 24be 4279 dcbd 02f8 323d 9959 2bbe

separable_conv2d_39/depthwise_kernel:0 f4 [32, 1, 3, 3]
0.05608775 0.19973157 0.060986806 -0.1829361 -0.055092383 0.049939364 -0.013836817 -0.12038622
-0.00035191706 0.14761521 -0.121576615 -0.2246729 0.042910438 -0.30785957 -0.18383229 0.006703652
0.1240427 0.06690395 -0.14989917 -0.26381823 -0.038349357 0.07648632 -0.06438173 0.108127
0.0552624 0.18622063 0.06098015 0.044995032 -0.17232843 -0.06009856 0.18432769 -0.21661179
-0.057789583 0.015446418 -0.06492559 0.16190045 -0.1337765 -0.046082877 -0.014308365 -0.07786681
-0.06207584 -0.13567176 0.06362792 -0.06574302 -0.110614955 0.021616012 0.03591061 -0.16801246
0.09480293 0.17475316 -0.018968644 0.07535222 0.011931572 -0.12211864 0.017897412 0.18951501
-0.020187924 0.13278697 0.11734124 0.047208708 -0.106633626 -0.13276798 0.06942231 -0.17158441
-0.16387048 0.044561572 -0.16113925 -0.25959814 -0.1476986 0.15087311 0.082788706 -0.037067715
-0.1502515 0.06332223 0.13935114 -0.11611731 0.019133419 0.012168135 0.18851253 0.092614524
0.05070142 0.022179455 -0.21468572 -0.034542166 -0.12894166 -0.19420871 -0.041666683 0.16722748
0.16627592 0.1820449 0.10052138 0.16713908 0.19448869 -0.054036576 0.07666139 0.077226155
-0.118698046 -0.1969022 -0.04289569 -0.07801374 -0.06665866 -0.025109442 -0.022950737 -0.14537917
-0.029357981 -0.09329022 -0.24408466 -0.12641178 0.15189512 0.2005043 -0.02323569 0.121045426
-0.0038062392 -0.14546122 -0.043685295 -0.16130328 -0.20800705 -0.11600789 -0.19484508 0.18137704
-0.1029573 -0.25775787 -0.06510491 -0.013100838 -0.03756704 0.10784217 0.14732668 -0.018771768
-0.019157674 -0.12629607 -0.2709152 -0.14532381 -0.08735753 -0.1565784 0.018463016 0.04470923
0.121043794 0.1430037 0.12485843 -0.033701863 -0.06628138 0.10637763 -0.059128735 0.005268209
0.106301814 0.019969262 -0.078370914 0.19645715 0.16401933 -0.06521478 -7.43124e-05 -0.11066443
-0.1862267 0.104668856 0.1832404 -0.032616198 -0.2492566 0.054620292 0.033320732 -0.23030749
-0.22265178 -0.01983224 0.12498279 0.12555416 -0.009802366 -0.17034154 0.20992167 -0.021116447
-0.18751599 0.06650456 0.027752114 0.16409674 0.19537343 0.15751806 0.17765349 0.314472
-0.05459045 -0.04402829 0.06171907 0.00261176 -0.14044504 -0.115143076 -0.10098664 -0.053400774
0.023539536 -0.005854305 0.18930946 0.14613132 0.028476546 -0.20926183 0.041256417 0.0692492
-0.161693 -0.08532651 -0.02699904 0.028621137 0.08730829 0.1550184 -0.16206129 0.1730597
0.048850965 -0.17394061 0.055688404 0.17812917 0.00047145877 -0.027163781 -0.013754109 -0.1311625
0.09230943 -0.025035318 -0.019656196 0.05350308 0.088482544 0.11725325 0.2117992 0.04255605
0.24646927 0.12049146 0.065850526 0.048273318 0.11981519 0.048337087 -0.18876946 -0.121479966
-0.0359715 -0.08412302 -0.14718974 -0.048800297 0.07599443 -0.035055283 -0.065696016 -0.08087277
-0.06525382 -0.027191376 0.103289336 0.028748363 0.11660036 0.060967106 0.08500248 0.0609173
-0.20751698 -0.16725777 0.1102593 -0.26218542 -0.082795694 0.09612745 -0.10083047 -0.12073226
0.08461681 -0.074546725 -0.17989416 0.011806521 0.10704621 -0.12854744 -0.050013565 0.03161391
00000000: 45bc 653d 6f86 4c3e 4dcd 793d 9a53 3bbe
00000010: 8da8 61bd 388d 4c3d d1b3 62bc 0d8d f6bd
00000020: 8281 b8b9 7128 173e 29fd f8bd a710 66be
00000030: dbc2 2f3d c59f 9dbe 883e 3cbe 4faa db3b
00000040: 190a fe3d f004 893d 2b7f 19be 2f13 87be
00000050: 3714 1dbd dca4 9c3d 92da 83bd b071 dd3d
00000060: d45a 623d 9fb0 3e3e 52c6 793d b64c 383d
00000070: dd76 30be e829 76bd 66c0 3c3e 7bcf 5dbe
00000080: c5b4 6cbd f912 7d3c b5f7 84bd 3bc9 253e
00000090: b5fc 08be 66c1 3cbd a26d 6abc a278 9fbd
000000a0: 3c43 7ebd 8aed 0abe 5b4f 823d 47a4 86bd
000000b0: 188a e2bd 1014 b13c 0117 133d 750b 2cbe
000000c0: 0a28 c23d 7ef2 323e 2164 9bbc 4452 9a3d
000000d0: a47c 433c 5619 fabd 989d 923c 3910 423e
000000e0: 2561 a5bc 4ff9 073e 9b50 f03d eb5d 413d
000000f0: bb62 dabd 54f4 07be 492d 8e3d d3b3 2fbe
00000100: aacd 27be 3286 363d b001 25be 0cea 84be
00000110: 4d3e 17be 7b7e 1a3e 208d a93d 51d4 17bd
00000120: 87db 19be 16af 813d 11b2 0e3e eace edbd
00000130: b0bd 9c3c db5c 473c 6e09 413e afac bd3d
00000140: 4bac 4f3d b0b1 b53c 93d6 5bbe 167c 0dbd
00000150: 4809 04be a6de 46be afaa 2abd ae3d 2b3e
00000160: 3c44 2a3e fa69 3a3e 27de cd3d 8226 2b3e
00000170: 0b28 473e 7555 5dbd a600 9d3d bf28 9e3d
00000180: f617 f3bd bba0 49be 64b3 2fbd abc5 9fbd
00000190: 5684 88bd 51b2 cdbc 2f03 bcbc 47de 14be
000001a0: 2680 f0bc f10e bfbd 54f1 79be 1772 01be
000001b0: 658a 1b3e 0051 4d3e c658 bebc aae6 f73d
000001c0: 1972 79bb c9f3 14be 5aef 32bd b02c 25be
000001d0: cdff 54be 8b95 edbd 7885 47be e7ba 393e
000001e0: 47db d2bd d7f8 83be b955 85bd e6a4 56bc
000001f0: e6df 19bd 5bdc dc3d cedc 163e 40c7 99bc
00000200: 8ef0 9cbc c253 01be 66b5 8abe c4cf 14be
00000210: 81e8 b2bd 1756 20be c03f 973c 0721 373d
00000220: cfe5 f73d 906f 123e c7b5 ff3d f70a 0abd
00000230: 88be 87bd 84dc d93d f930 72bd f1a0 ac3b
00000240: c4b4 d93d 9496 a33c ee80 a0bd 102c 493e
00000250: aff4 273e 548f 85bd 2ad8 9bb8 08a4 e2bd
00000260: 36b2 3ebe a05c d63d 5fa3 3b3e 9098 05bd
00000270: 1f3d 7fbe 87b9 5f3d 527b 083d bad5 6bbe
00000280: d4fe 63be 3977 a2bc faf6 ff3d 4591 003e
00000290: 1a9a 20bc 036e 2ebe b5f5 563e 66fc acbc
000002a0: 3104 40be 8b33 883d 6758 e33c fa08 283e
000002b0: f90f 483e 6a4c 213e ccea 353e 7902 a13e
000002c0: 3c9a 5fbd 0257 34bd 23cd 7c3d 102a 2b3b
000002d0: d3d0 0fbe 22d0 ebbd 15d2 cebd c5ba 5abd
000002e0: fcd5 c03c 78d5 bfbb 57da 413e 73a3 153e
000002f0: a547 e93c bc48 56be 7dfc 283d 86d2 8d3d
00000300: da92 25be aabf aebd 172d ddbc e076 ea3c
00000310: b0ce b23d 25bd 1e3e 65f3 25be 9036 313e
00000320: f317 483d 7d1d 32be 8619 643d 7e67 363e
00000330: 202e f739 9486 debc ea58 61bc 764f 06be
00000340: ba0c bd3d de16 cdbc 0806 a1bc 0c26 5b3d
00000350: 5636 b53d 7922 f03d e4e1 583e 414f 2e3d
00000360: 7162 7c3e 3ac4 f63d a4dc 863d 3eba 453d
00000370: ab61 f53d 1cfd 453d c84c 41be 7dca f8bd
00000380: da56 13bd b148 acbd e8b8 16be d2e2 47bd
00000390: f8a2 9b3d 2196 0fbd a28b 86bd 9fa0 a5bd
000003a0: cba3 85bd 73c0 debc 5c89 d33d b081 eb3c
000003b0: 2bcc ee3d a5b8 793d c815 ae3d 6b84 793d
000003c0: 557f 54be 9f45 2bbe a1cf e13d 2b3d 86be
000003d0: ca90 a9bd 78de c43d 3580 cebd 7a42 f7bd
000003e0: 944b ad3d f4ab 98bd 2d36 38be 2370 413c
000003f0: 0b3b db3d f1a1 03be 06db 4cbd 967d 013d
